==> Model type: Idefics2ForConditionalGeneration
==> Model architecture: Idefics2ForConditionalGeneration(
  (model): Idefics2Model(
    (vision_model): Idefics2VisionTransformer(
      (embeddings): Idefics2VisionEmbeddings(
        (patch_embedding): Conv2d(3, 1152, kernel_size=(14, 14), stride=(14, 14), padding=valid)
        (position_embedding): Embedding(4900, 1152)
      )
      (encoder): Idefics2Encoder(
        (layers): ModuleList(
          (0-26): 27 x Idefics2EncoderLayer(
            (self_attn): Idefics2VisionFlashAttention2(
              (k_proj): Linear(in_features=1152, out_features=1152, bias=True)
              (v_proj): Linear(in_features=1152, out_features=1152, bias=True)
              (q_proj): Linear(in_features=1152, out_features=1152, bias=True)
              (out_proj): Linear(in_features=1152, out_features=1152, bias=True)
            )
            (layer_norm1): LayerNorm((1152,), eps=1e-06, elementwise_affine=True)
            (mlp): Idefics2VisionMLP(
              (activation_fn): PytorchGELUTanh()
              (fc1): Linear(in_features=1152, out_features=4304, bias=True)
              (fc2): Linear(in_features=4304, out_features=1152, bias=True)
            )
            (layer_norm2): LayerNorm((1152,), eps=1e-06, elementwise_affine=True)
          )
        )
      )
      (post_layernorm): LayerNorm((1152,), eps=1e-06, elementwise_affine=True)
    )
    (connector): Idefics2Connector(
      (modality_projection): Idefics2MLP(
        (gate_proj): Linear(in_features=1152, out_features=14336, bias=False)
        (up_proj): Linear(in_features=1152, out_features=14336, bias=False)
        (down_proj): Linear(in_features=14336, out_features=4096, bias=False)
        (act_fn): SiLU()
      )
      (perceiver_resampler): Idefics2PerceiverResampler(
        (layers): ModuleList(
          (0-2): 3 x Idefics2PerceiverLayer(
            (input_latents_norm): Idefics2RMSNorm((4096,), eps=1e-06)
            (input_context_norm): Idefics2RMSNorm((4096,), eps=1e-06)
            (self_attn): Idefics2PerceiverFlashAttention2(
              (q_proj): Linear(in_features=4096, out_features=1536, bias=False)
              (k_proj): Linear(in_features=4096, out_features=384, bias=False)
              (v_proj): Linear(in_features=4096, out_features=384, bias=False)
              (o_proj): Linear(in_features=1536, out_features=4096, bias=False)
            )
            (post_attention_layernorm): Idefics2RMSNorm((4096,), eps=1e-06)
            (mlp): Idefics2MLP(
              (gate_proj): Linear(in_features=4096, out_features=16384, bias=False)
              (up_proj): Linear(in_features=4096, out_features=16384, bias=False)
              (down_proj): Linear(in_features=16384, out_features=4096, bias=False)
              (act_fn): SiLU()
            )
          )
        )
        (norm): Idefics2RMSNorm((4096,), eps=1e-06)
      )
    )
    (text_model): MistralModel(
      (embed_tokens): Embedding(32004, 4096, padding_idx=32003)
      (layers): ModuleList(
        (0-31): 32 x MistralDecoderLayer(
          (self_attn): MistralFlashAttention2(
            (q_proj): Linear(in_features=4096, out_features=4096, bias=False)
            (k_proj): Linear(in_features=4096, out_features=1024, bias=False)
            (v_proj): Linear(in_features=4096, out_features=1024, bias=False)
            (o_proj): Linear(in_features=4096, out_features=4096, bias=False)
            (rotary_emb): MistralRotaryEmbedding()
          )
          (mlp): MistralMLP(
            (gate_proj): Linear(in_features=4096, out_features=14336, bias=False)
            (up_proj): Linear(in_features=4096, out_features=14336, bias=False)
            (down_proj): Linear(in_features=14336, out_features=4096, bias=False)
            (act_fn): SiLU()
          )
          (input_layernorm): MistralRMSNorm((4096,), eps=1e-05)
          (post_attention_layernorm): MistralRMSNorm((4096,), eps=1e-05)
        )
      )
      (norm): MistralRMSNorm((4096,), eps=1e-05)
    )
  )
  (lm_head): Linear(in_features=4096, out_features=32004, bias=False)
)
==> Model config: Idefics2Config {
  "_attn_implementation_autoset": true,
  "_name_or_path": "./results/training_checkpoints/checkpoint-325",
  "architectures": [
    "Idefics2ForConditionalGeneration"
  ],
  "image_token_id": 32001,
  "model_type": "idefics2",
  "pad_token_id": 32003,
  "perceiver_config": {
    "_attn_implementation_autoset": false,
…
